Backbone(
  (encoder): Encoder(
    (layers): ModuleList(
      (0): ModuleList(
        (0): ModuleList(
          (0): Sequential(
            (0): Conv2d(32, 64, kernel_size=(3, 3), stride=(1, 1), padding=(1, 1))
            (1): ReLU()
            (2): BatchNorm2d(64, eps=1e-05, momentum=0.1, affine=True, track_running_stats=True)
            (3): Conv2d(64, 64, kernel_size=(1, 1), stride=(1, 1))
            (4): ReLU()
            (5): BatchNorm2d(64, eps=1e-05, momentum=0.1, affine=True, track_running_stats=True)
          )
          (1): Sequential(
            (0): Conv2d(32, 64, kernel_size=(5, 5), stride=(1, 1), padding=(2, 2))
            (1): ReLU()
            (2): BatchNorm2d(64, eps=1e-05, momentum=0.1, affine=True, track_running_stats=True)
            (3): Conv2d(64, 64, kernel_size=(1, 1), stride=(1, 1))
            (4): ReLU()
            (5): BatchNorm2d(64, eps=1e-05, momentum=0.1, affine=True, track_running_stats=True)
          )
          (2): Sequential(
            (0): Conv2d(32, 64, kernel_size=(7, 7), stride=(1, 1), padding=(3, 3))
            (1): ReLU()
            (2): BatchNorm2d(64, eps=1e-05, momentum=0.1, affine=True, track_running_stats=True)
            (3): Conv2d(64, 64, kernel_size=(1, 1), stride=(1, 1))
            (4): ReLU()
            (5): BatchNorm2d(64, eps=1e-05, momentum=0.1, affine=True, track_running_stats=True)
          )
        )
      )
      (1): ModuleList(
        (0-2): 3 x ModuleList(
          (0): Sequential(
            (0): Conv2d(64, 128, kernel_size=(3, 3), stride=(1, 1), padding=(1, 1))
            (1): ReLU()
            (2): BatchNorm2d(128, eps=1e-05, momentum=0.1, affine=True, track_running_stats=True)
            (3): Conv2d(128, 128, kernel_size=(1, 1), stride=(1, 1))
            (4): ReLU()
            (5): BatchNorm2d(128, eps=1e-05, momentum=0.1, affine=True, track_running_stats=True)
          )
          (1): Sequential(
            (0): Conv2d(64, 128, kernel_size=(5, 5), stride=(1, 1), padding=(2, 2))
            (1): ReLU()
            (2): BatchNorm2d(128, eps=1e-05, momentum=0.1, affine=True, track_running_stats=True)
            (3): Conv2d(128, 128, kernel_size=(1, 1), stride=(1, 1))
            (4): ReLU()
            (5): BatchNorm2d(128, eps=1e-05, momentum=0.1, affine=True, track_running_stats=True)
          )
          (2): Sequential(
            (0): Conv2d(64, 128, kernel_size=(7, 7), stride=(1, 1), padding=(3, 3))
            (1): ReLU()
            (2): BatchNorm2d(128, eps=1e-05, momentum=0.1, affine=True, track_running_stats=True)
            (3): Conv2d(128, 128, kernel_size=(1, 1), stride=(1, 1))
            (4): ReLU()
            (5): BatchNorm2d(128, eps=1e-05, momentum=0.1, affine=True, track_running_stats=True)
          )
        )
      )
    )
    (encoder_0): Sequential(
      (0): Conv2d(6, 32, kernel_size=(3, 3), stride=(1, 1), padding=(1, 1))
      (1): ReLU()
      (2): BatchNorm2d(32, eps=1e-05, momentum=0.1, affine=True, track_running_stats=True)
      (3): Conv2d(32, 32, kernel_size=(1, 1), stride=(1, 1))
      (4): ReLU()
      (5): BatchNorm2d(32, eps=1e-05, momentum=0.1, affine=True, track_running_stats=True)
    )
  )
  (decoder): Decoder(
    (layers): ModuleList(
      (0): ModuleList(
        (0-2): 3 x Sequential(
          (0): Conv2d(128, 64, kernel_size=(3, 3), stride=(1, 1), padding=(1, 1))
          (1): ReLU()
          (2): BatchNorm2d(64, eps=1e-05, momentum=0.1, affine=True, track_running_stats=True)
          (3): Conv2d(64, 64, kernel_size=(1, 1), stride=(1, 1))
          (4): ReLU()
          (5): BatchNorm2d(64, eps=1e-05, momentum=0.1, affine=True, track_running_stats=True)
        )
      )
      (1): ModuleList(
        (0-2): 3 x Sequential(
          (0): Conv2d(64, 32, kernel_size=(1, 1), stride=(1, 1))
          (1): ReLU()
          (2): BatchNorm2d(32, eps=1e-05, momentum=0.1, affine=True, track_running_stats=True)
          (3): Conv2d(32, 32, kernel_size=(1, 1), stride=(1, 1))
          (4): ReLU()
          (5): BatchNorm2d(32, eps=1e-05, momentum=0.1, affine=True, track_running_stats=True)
        )
      )
      (2): ModuleList(
        (0-2): 3 x Sequential(
          (0): Conv2d(32, 2, kernel_size=(1, 1), stride=(1, 1))
          (1): ReLU()
          (2): BatchNorm2d(2, eps=1e-05, momentum=0.1, affine=True, track_running_stats=True)
          (3): Conv2d(2, 2, kernel_size=(1, 1), stride=(1, 1))
          (4): ReLU()
          (5): BatchNorm2d(2, eps=1e-05, momentum=0.1, affine=True, track_running_stats=True)
        )
      )
    )
    (softmax): Softmax(dim=1)
  )
)
  0%|          | 0/301 [00:00<?, ?it/s]step 11/275, epoch 1/301 --> loss:0.45904070138931274
step 21/275, epoch 1/301 --> loss:0.39143348932266236
step 31/275, epoch 1/301 --> loss:0.3545379817485809
step 41/275, epoch 1/301 --> loss:0.35900106430053713
step 51/275, epoch 1/301 --> loss:0.348126208782196
…
