Backbone(
  (encoder): Encoder(
    (layers): ModuleList(
      (0): ModuleList(
        (0): ModuleList(
          (0): Sequential(
            (0): Conv2d(8, 16, kernel_size=(3, 3), stride=(1, 1), padding=(1, 1))
            (1): ReLU()
            (2): BatchNorm2d(16, eps=1e-05, momentum=0.1, affine=True, track_running_stats=True)
            (3): Conv2d(16, 16, kernel_size=(1, 1), stride=(1, 1))
            (4): ReLU()
            (5): BatchNorm2d(16, eps=1e-05, momentum=0.1, affine=True, track_running_stats=True)
          )
          (1): Sequential(
            (0): Conv2d(8, 16, kernel_size=(5, 5), stride=(1, 1), padding=(2, 2))
            (1): ReLU()
            (2): BatchNorm2d(16, eps=1e-05, momentum=0.1, affine=True, track_running_stats=True)
            (3): Conv2d(16, 16, kernel_size=(1, 1), stride=(1, 1))
            (4): ReLU()
            (5): BatchNorm2d(16, eps=1e-05, momentum=0.1, affine=True, track_running_stats=True)
          )
          (2): Sequential(
            (0): Conv2d(8, 16, kernel_size=(7, 7), stride=(1, 1), padding=(3, 3))
            (1): ReLU()
            (2): BatchNorm2d(16, eps=1e-05, momentum=0.1, affine=True, track_running_stats=True)
            (3): Conv2d(16, 16, kernel_size=(1, 1), stride=(1, 1))
            (4): ReLU()
            (5): BatchNorm2d(16, eps=1e-05, momentum=0.1, affine=True, track_running_stats=True)
          )
        )
      )
      (1): ModuleList(
        (0-2): 3 x ModuleList(
          (0): Sequential(
            (0): Conv2d(16, 32, kernel_size=(3, 3), stride=(1, 1), padding=(1, 1))
            (1): ReLU()
            (2): BatchNorm2d(32, eps=1e-05, momentum=0.1, affine=True, track_running_stats=True)
            (3): Conv2d(32, 32, kernel_size=(1, 1), stride=(1, 1))
            (4): ReLU()
            (5): BatchNorm2d(32, eps=1e-05, momentum=0.1, affine=True, track_running_stats=True)
          )
          (1): Sequential(
            (0): Conv2d(16, 32, kernel_size=(5, 5), stride=(1, 1), padding=(2, 2))
            (1): ReLU()
            (2): BatchNorm2d(32, eps=1e-05, momentum=0.1, affine=True, track_running_stats=True)
            (3): Conv2d(32, 32, kernel_size=(1, 1), stride=(1, 1))
            (4): ReLU()
            (5): BatchNorm2d(32, eps=1e-05, momentum=0.1, affine=True, track_running_stats=True)
          )
          (2): Sequential(
            (0): Conv2d(16, 32, kernel_size=(7, 7), stride=(1, 1), padding=(3, 3))
            (1): ReLU()
            (2): BatchNorm2d(32, eps=1e-05, momentum=0.1, affine=True, track_running_stats=True)
            (3): Conv2d(32, 32, kernel_size=(1, 1), stride=(1, 1))
            (4): ReLU()
            (5): BatchNorm2d(32, eps=1e-05, momentum=0.1, affine=True, track_running_stats=True)
          )
        )
      )
      (2): ModuleList(
        (0-8): 9 x ModuleList(
          (0): Sequential(
            (0): Conv2d(32, 64, kernel_size=(3, 3), stride=(1, 1), padding=(1, 1))
            (1): ReLU()
            (2): BatchNorm2d(64, eps=1e-05, momentum=0.1, affine=True, track_running_stats=True)
            (3): Conv2d(64, 64, kernel_size=(1, 1), stride=(1, 1))
            (4): ReLU()
            (5): BatchNorm2d(64, eps=1e-05, momentum=0.1, affine=True, track_running_stats=True)
          )
          (1): Sequential(
            (0): Conv2d(32, 64, kernel_size=(5, 5), stride=(1, 1), padding=(2, 2))
            (1): ReLU()
            (2): BatchNorm2d(64, eps=1e-05, momentum=0.1, affine=True, track_running_stats=True)
            (3): Conv2d(64, 64, kernel_size=(1, 1), stride=(1, 1))
            (4): ReLU()
            (5): BatchNorm2d(64, eps=1e-05, momentum=0.1, affine=True, track_running_stats=True)
          )
          (2): Sequential(
            (0): Conv2d(32, 64, kernel_size=(7, 7), stride=(1, 1), padding=(3, 3))
            (1): ReLU()
            (2): BatchNorm2d(64, eps=1e-05, momentum=0.1, affine=True, track_running_stats=True)
            (3): Conv2d(64, 64, kernel_size=(1, 1), stride=(1, 1))
            (4): ReLU()
            (5): BatchNorm2d(64, eps=1e-05, momentum=0.1, affine=True, track_running_stats=True)
          )
        )
      )
    )
    (encoder_0): Sequential(
      (0): Conv2d(6, 8, kernel_size=(3, 3), stride=(1, 1), padding=(1, 1))
      (1): ReLU()
      (2): BatchNorm2d(8, eps=1e-05, momentum=0.1, affine=True, track_running_stats=True)
      (3): Conv2d(8, 8, kernel_size=(1, 1), stride=(1, 1))
      (4): ReLU()
      (5): BatchNorm2d(8, eps=1e-05, momentum=0.1, affine=True, track_running_stats=True)
    )
  )
  (decoder): Decoder(
    (layers): ModuleList(
      (0): ModuleList(
        (0-8): 9 x Sequential(
          (0): Conv2d(64, 32, kernel_size=(3, 3), stride=(1, 1), padding=(1, 1))
          (1): ReLU()
          (2): BatchNorm2d(32, eps=1e-05, momentum=0.1, affine=True, track_running_stats=True)
          (3): Conv2d(32, 32, kernel_size=(1, 1), stride=(1, 1))
          (4): ReLU()
          (5): BatchNorm2d(32, eps=1e-05, momentum=0.1, affine=True, track_running_stats=True)
        )
      )
      (1): ModuleList(
        (0-8): 9 x Sequential(
          (0): Conv2d(32, 16, kernel_size=(1, 1), stride=(1, 1))
          (1): ReLU()
          (2): BatchNorm2d(16, eps=1e-05, momentum=0.1, affine=True, track_running_stats=True)
          (3): Conv2d(16, 16, kernel_size=(1, 1), stride=(1, 1))
          (4): ReLU()
          (5): BatchNorm2d(16, eps=1e-05, momentum=0.1, affine=True, track_running_stats=True)
        )
      )
      (2): ModuleList(
        (0-8): 9 x Sequential(
          (0): Conv2d(16, 8, kernel_size=(1, 1), stride=(1, 1))
          (1): ReLU()
          (2): BatchNorm2d(8, eps=1e-05, momentum=0.1, affine=True, track_running_stats=True)
          (3): Conv2d(8, 8, kernel_size=(1, 1), stride=(1, 1))
          (4): ReLU()
          (5): BatchNorm2d(8, eps=1e-05, momentum=0.1, affine=True, track_running_stats=True)
        )
      )
      (3): ModuleList(
        (0-8): 9 x Sequential(
          (0): Conv2d(8, 2, kernel_size=(1, 1), stride=(1, 1))
          (1): ReLU()
          (2): BatchNorm2d(2, eps=1e-05, momentum=0.1, affine=True, track_running_stats=True)
          (3): Conv2d(2, 2, kernel_size=(1, 1), stride=(1, 1))
          (4): ReLU()
          (5): BatchNorm2d(2, eps=1e-05, momentum=0.1, affine=True, track_running_stats=True)
        )
      )
    )
    (softmax): Softmax(dim=1)
  )
)
  0%|          | 0/301 [00:00<?, ?it/s]step 11/275, epoch 1/301 --> loss:0.44486783146858216
step 21/275, epoch 1/301 --> loss:0.35389137268066406
step 31/275, epoch 1/301 --> loss:0.289491605758667
step 41/275, epoch 1/301 --> loss:0.26023395657539367
step 51/275, epoch 1/301 --> loss:0.2526902139186859
…
