…
 False, 'resume': '', 'eval_epochs': 10, 'start_eval_epochs': 0, 'eval_traindata': True, 'epoch_size': 301, 'loss_monitor_step': 10, 'metrics_List': ['acc', 'F1'], 'save_metrics_List': ['F1'], 'save_model_path': '/Code/T1/Models', 'log_path': '/Code/T1/Logs', 'lr_init': 0.0005, 'lr_max': 0.0005, 'lr_end': 5e-05, 'warmup_epochs': 0, 'backbone_type': 'L2-16', 'input_dim': 6, 'layer_nums': 2, 'backbone_dims': [16, 32, 64]}

##########Network##########
Backbone(
  (encoder): Encoder(
    (layers): ModuleList(
      (0): ModuleList(
        (0): ModuleList(
          (0): Sequential(
            (0): Conv2d(16, 32, kernel_size=(3, 3), stride=(1, 1), padding=(1, 1))
            (1): ReLU()
            (2): BatchNorm2d(32, eps=1e-05, momentum=0.1, affine=True, track_running_stats=True)
            (3): Conv2d(32, 32, kernel_size=(1, 1), stride=(1, 1))
            (4): ReLU()
            (5): BatchNorm2d(32, eps=1e-05, momentum=0.1, affine=True, track_running_stats=True)
          )
          (1): Sequential(
            (0): Conv2d(16, 32, kernel_size=(5, 5), stride=(1, 1), padding=(2, 2))
            (1): ReLU()
            (2): BatchNorm2d(32, eps=1e-05, momentum=0.1, affine=True, track_running_stats=True)
            (3): Conv2d(32, 32, kernel_size=(1, 1), stride=(1, 1))
            (4): ReLU()
            (5): BatchNorm2d(32, eps=1e-05, momentum=0.1, affine=True, track_running_stats=True)
          )
          (2): Sequential(
            (0): Conv2d(16, 32, kernel_size=(7, 7), stride=(1, 1), padding=(3, 3))
            (1): ReLU()
            (2): BatchNorm2d(32, eps=1e-05, momentum=0.1, affine=True, track_running_stats=True)
            (3): Conv2d(32, 32, kernel_size=(1, 1), stride=(1, 1))
            (4): ReLU()
            (5): BatchNorm2d(32, eps=1e-05, momentum=0.1, affine=True, track_running_stats=True)
          )
        )
      )
      (1): ModuleList(
        (0-2): 3 x ModuleList(
          (0): Sequential(
            (0): Conv2d(32, 64, kernel_size=(3, 3), stride=(1, 1), padding=(1, 1))
            (1): ReLU()
            (2): BatchNorm2d(64, eps=1e-05, momentum=0.1, affine=True, track_running_stats=True)
            (3): Conv2d(64, 64, kernel_size=(1, 1), stride=(1, 1))
            (4): ReLU()
            (5): BatchNorm2d(64, eps=1e-05, momentum=0.1, affine=True, track_running_stats=True)
          )
          (1): Sequential(
            (0): Conv2d(32, 64, kernel_size=(5, 5), stride=(1, 1), padding=(2, 2))
            (1): ReLU()
            (2): BatchNorm2d(64, eps=1e-05, momentum=0.1, affine=True, track_running_stats=True)
            (3): Conv2d(64, 64, kernel_size=(1, 1), stride=(1, 1))
            (4): ReLU()
            (5): BatchNorm2d(64, eps=1e-05, momentum=0.1, affine=True, track_running_stats=True)
          )
          (2): Sequential(
            (0): Conv2d(32, 64, kernel_size=(7, 7), stride=(1, 1), padding=(3, 3))
            (1): ReLU()
            (2): BatchNorm2d(64, eps=1e-05, momentum=0.1, affine=True, track_running_stats=True)
            (3): Conv2d(64, 64, kernel_size=(1, 1), stride=(1, 1))
            (4): ReLU()
            (5): BatchNorm2d(64, eps=1e-05, momentum=0.1, affine=True, track_running_stats=True)
          )
        )
      )
    )
    (encoder_0): Sequential(
      (0): Conv2d(6, 16, kernel_size=(3, 3), stride=(1, 1), padding=(1, 1))
      (1): ReLU()
      (2): BatchNorm2d(16, eps=1e-05, momentum=0.1, affine=True, track_running_stats=True)
      (3): Conv2d(16, 16, kernel_size=(1, 1), stride=(1, 1))
      (4): ReLU()
      (5): BatchNorm2d(16, eps=1e-05, momentum=0.1, affine=True, track_running_stats=True)
    )
  )
  (decoder): Decoder(
    (layers): ModuleList(
      (0): ModuleList(
        (0-2): 3 x Sequential(
          (0): Conv2d(64, 32, kernel_size=(3, 3), stride=(1, 1), padding=(1, 1))
          (1): ReLU()
          (2): BatchNorm2d(32, eps=1e-05, momentum=0.1, affine=True, track_running_stats=True)
          (3): Conv2d(32, 32, kernel_size=(1, 1), stride=(1, 1))
          (4): ReLU()
          (5): BatchNorm2d(32, eps=1e-05, momentum=0.1, affine=True, track_running_stats=True)
        )
      )
      (1): ModuleList(
        (0-2): 3 x Sequential(
          (0): Conv2d(32, 16, kernel_size=(1, 1), stride=(1, 1))
          (1): ReLU()
          (2): BatchNorm2d(16, eps=1e-05, momentum=0.1, affine=True, track_running_stats=True)
          (3): Conv2d(16, 16, kernel_size=(1, 1), stride=(1, 1))
          (4): ReLU()
          (5): BatchNorm2d(16, eps=1e-05, momentum=0.1, affine=True, track_running_stats=True)
        )
      )
      (2): ModuleList(
        (0-2): 3 x Sequential(
          (0): Conv2d(16, 2, kernel_size=(1, 1), stride=(1, 1))
          (1): ReLU()
          (2): BatchNorm2d(2, eps=1e-05, momentum=0.1, affine=True, track_running_stats=True)
          (3): Conv2d(2, 2, kernel_size=(1, 1), stride=(1, 1))
          (4): ReLU()
          (5): BatchNorm2d(2, eps=1e-05, momentum=0.1, affine=True, track_running_stats=True)
        )
      )
    )
    (softmax): Softmax(dim=1)
  )
)

##########Training##########
step 11/275, epoch 1/301 --> loss:0.46471675038337706
step 21/275, epoch 1/301 --> loss:0.3991245269775391
step 31/275, epoch 1/301 --> loss:0.3784626603126526
step 41/275, epoch 1/301 --> loss:0.3294914722442627
step 51/275, epoch 1/301 --> loss:0.3198077857494354
…
