…
etrained': False, 'resume': '', 'eval_epochs': 10, 'start_eval_epochs': 0, 'eval_traindata': True, 'epoch_size': 301, 'loss_monitor_step': 10, 'metrics_List': ['acc', 'F1'], 'save_metrics_List': ['F1'], 'save_model_path': 'W:/T1/Models', 'log_path': 'W:/T1/Logs', 'lr_init': 0.0005, 'lr_max': 0.0005, 'lr_end': 5e-05, 'warmup_epochs': 0, 'backbone_type': 'L1-32', 'input_dim': 6, 'layer_nums': 1, 'backbone_dims': [32, 64]}

##########Network##########
Backbone(
  (encoder): Encoder(
    (layers): ModuleList(
      (0): ModuleList(
        (0): ModuleList(
          (0): Sequential(
            (0): Conv2d(32, 64, kernel_size=(3, 3), stride=(1, 1), padding=(1, 1))
            (1): ReLU()
            (2): BatchNorm2d(64, eps=1e-05, momentum=0.1, affine=True, track_running_stats=True)
            (3): Conv2d(64, 64, kernel_size=(1, 1), stride=(1, 1))
            (4): ReLU()
            (5): BatchNorm2d(64, eps=1e-05, momentum=0.1, affine=True, track_running_stats=True)
          )
          (1): Sequential(
            (0): Conv2d(32, 64, kernel_size=(5, 5), stride=(1, 1), padding=(2, 2))
            (1): ReLU()
            (2): BatchNorm2d(64, eps=1e-05, momentum=0.1, affine=True, track_running_stats=True)
            (3): Conv2d(64, 64, kernel_size=(1, 1), stride=(1, 1))
            (4): ReLU()
            (5): BatchNorm2d(64, eps=1e-05, momentum=0.1, affine=True, track_running_stats=True)
          )
          (2): Sequential(
            (0): Conv2d(32, 64, kernel_size=(7, 7), stride=(1, 1), padding=(3, 3))
            (1): ReLU()
            (2): BatchNorm2d(64, eps=1e-05, momentum=0.1, affine=True, track_running_stats=True)
            (3): Conv2d(64, 64, kernel_size=(1, 1), stride=(1, 1))
            (4): ReLU()
            (5): BatchNorm2d(64, eps=1e-05, momentum=0.1, affine=True, track_running_stats=True)
          )
        )
      )
    )
    (encoder_0): Sequential(
      (0): Conv2d(6, 32, kernel_size=(3, 3), stride=(1, 1), padding=(1, 1))
      (1): ReLU()
      (2): BatchNorm2d(32, eps=1e-05, momentum=0.1, affine=True, track_running_stats=True)
      (3): Conv2d(32, 32, kernel_size=(1, 1), stride=(1, 1))
      (4): ReLU()
      (5): BatchNorm2d(32, eps=1e-05, momentum=0.1, affine=True, track_running_stats=True)
    )
  )
  (decoder): Decoder(
    (layers): ModuleList(
      (0): ModuleList(
        (0): Sequential(
          (0): Conv2d(64, 32, kernel_size=(3, 3), stride=(1, 1), padding=(1, 1))
          (1): ReLU()
          (2): BatchNorm2d(32, eps=1e-05, momentum=0.1, affine=True, track_running_stats=True)
          (3): Conv2d(32, 32, kernel_size=(1, 1), stride=(1, 1))
          (4): ReLU()
          (5): BatchNorm2d(32, eps=1e-05, momentum=0.1, affine=True, track_running_stats=True)
        )
      )
      (1): ModuleList(
        (0): Sequential(
          (0): Conv2d(32, 2, kernel_size=(1, 1), stride=(1, 1))
          (1): ReLU()
          (2): BatchNorm2d(2, eps=1e-05, momentum=0.1, affine=True, track_running_stats=True)
          (3): Conv2d(2, 2, kernel_size=(1, 1), stride=(1, 1))
          (4): ReLU()
          (5): BatchNorm2d(2, eps=1e-05, momentum=0.1, affine=True, track_running_stats=True)
        )
      )
    )
    (softmax): Softmax(dim=1)
  )
)

##########Training##########
step 11/275, epoch 1/301 --> loss:0.5179806053638458
step 21/275, epoch 1/301 --> loss:0.4437178909778595
step 31/275, epoch 1/301 --> loss:0.4482574641704559
step 41/275, epoch 1/301 --> loss:0.4521907687187195
step 51/275, epoch 1/301 --> loss:0.4499139904975891
…
